pretrained/semantic_weights.pth (torch, 6058 bytes, 1 tensors)

fc.weight f4 [1, 1152]
000000 94 9d 21 3e 27 49 7e 3d bf ca 38 3b 05 35 7b 3d
       0.15782768 0.062081482 0.0028197018 0.06132986
000010 a5 77 06 3e 60 d4 0d be 31 ce 23 be 4a a8 82 bc
       0.13131578 -0.13850546 -0.15996625 -0.015949387
000020 b5 a0 18 be 13 40 d4 bd 7c c1 20 be 42 80 fa 3d
       -0.14905055 -0.10363784 -0.15698808 0.122314945
000030 bc 01 0b 3d db d0 a3 bc 5a 36 8c 3d 1a de 4d bd
       0.0339372 -0.019997051 0.06846304 -0.05026064
000040 9e 0a ec 3d 84 94 fc bc 4d 21 a1 3d ea c3 66 bd
       0.115254626 -0.030832537 0.0786768 -0.056339182
000050 e5 c0 bb 3d f7 01 c7 bd 14 9a 89 3b bd bd e0 3d
       0.09167651 -0.09717172 0.0041992757 0.1097369
000060 fc a3 e7 3d 13 ed 1e bd 14 f1 81 bd a5 e0 c2 3d
       0.113105744 -0.03880031 -0.0634481 0.09515504
000070 89 ab db bb 64 e8 c2 3d 09 2e 2b be 42 57 42 3c
       -0.006703798 0.09516981 -0.1671678 0.011861624
000080 28 a5 6b 3b e9 9e 06 be 29 cc 8c 3d 32 87 55 be
       0.0035956595 -0.13146557 0.06874878 -0.20852354
000090 f0 4b c8 3d 16 59 b1 3d cb 1a 5d 3e 97 94 17 be
       0.09780109 0.0865957 0.21592252 -0.14802776
0000a0 b9 a1 5b 3d 92 66 35 3c d2 62 4a 3e 56 fd 5c 3d
       0.053621028 0.011071818 0.1976426 0.053952537
0000b0 1f e9 84 bc 87 db 1e be b3 aa 54 3d d2 a9 e6 3c
       -0.016224442 -0.1551343 0.051920604 0.028157149
0000c0 cb 9c ce 3d 5c 8e 2d 3e 34 03 f0 3d bb e4 92 3c
       0.100885 0.16948837 0.11719361 0.017931333
0000d0 43 0a cd 3c 3b 2e cb 3c 55 ba 10 3e 5b 30 0b 3e
       0.025029307 0.024802318 0.1413358 0.13592665
0000e0 98 f1 6b be 92 f5 10 be 94 08 96 bd 19 33 14 be
       -0.2304138 -0.14156178 -0.07325855 -0.14472617
0000f0 cf 56 9f 3c e7 e4 97 bc a8 e7 16 be 01 ed 95 bd
       0.019450573 -0.018541766 -0.14736807 -0.073205955
000100 90 61 03 3d d6 46 82 3d e1 5b 4a 3d 29 d0 a2 bc
       0.032075465 0.06361167 0.04940403 -0.01987465
000110 2c 02 d2 3c 6b 7d 84 3d 5f e8 45 be 50 a5 88 3d
       0.025635801 0.06469234 -0.19326924 0.06672156
000120 70 a7 9d be 84 95 4e bd 6c aa 16 3d a7 04 03 3e
       -0.30791807 -0.050435558 0.03678362 0.12794743
000130 d5 02 e5 3c 70 03 d8 3b 5f c7 e0 3d 59 ec 34 3d
       0.027955452 0.0065922067 0.10975527 0.04417071
000140 e6 1f 0c 3e 31 e8 1b 3e 69 da d3 bd 37 95 3a bd
       0.13684043 0.15225293 -0.10344393 -0.04555246
000150 77 1a 01 be f5 6b f6 3d c8 9d f7 3c 79 20 ec b9
       -0.12607752 0.1203231 0.030226603 -0.00045037622
000160 39 d8 e5 bd c3 51 44 be ce 10 12 3c 66 78 f5 bd
       -0.11222882 -0.19171815 0.008915139 -0.11985855
000170 ed 8f 58 bd fb 32 d3 3b 15 6d 2f bd cc ac 10 3d
       -0.052871633 0.0064452863 -0.042828638 0.035321042
000180 d4 ae 00 be 73 b0 12 3d 1d 40 53 3d 3a 18 07 3e
       -0.12566692 0.035812806 0.051574815 0.13192835
000190 c3 0b 56 be fa 5e 97 bd d9 7f 4b 3d a6 c1 7a 3e
       -0.20902924 -0.07391162 0.049682472 0.24487934
0001a0 e4 5b eb bb 50 31 40 3d 27 83 51 3d 4d 72 2d 3e
       -0.007182585 0.046922028 0.051150467 0.16938134
0001b0 59 8d 40 3d 8a ee 1c be f4 31 27 3e 08 12 94 3b
       0.0470098 -0.1532537 0.1632765 0.004518751
0001c0 f7 38 1d be 5b 37 73 3d 58 2a e7 bd 84 1b a1 bd
       -0.15353762 0.059378963 -0.11287373 -0.07866576
0001d0 59 39 51 bd 4a 22 d9 bd 8c 6d f8 bd 34 fb be 3d
       -0.05108008 -0.10602243 -0.121302694 0.09325257
0001e0 7a fe 4c 3d fe 4a ce bd 96 df bd bb c6 97 bd bc
       0.050047375 -0.100728974 -0.005794476 -0.02314366
0001f0 ed 37 98 bc 28 93 b6 3e a6 bd 56 3c 31 bb 3f 3d
       -0.018581355 0.35659146 0.013106739 0.04680938
000200 00 ee a4 bc e0 9d 9d bd d4 2c 5b 3e 34 f8 75 3d
       -0.020133018 -0.07696128 0.2140382 0.060051158
000210 be ec 85 3c c8 d0 01 3e 80 a9 a4 3d f8 8f f9 3b
       0.016348239 0.126773 0.08040142 0.0076160394
000220 03 a3 63 be 20 82 76 3c c8 6f 08 3e 4b 2b 0c bb
       -0.22230153 0.015045673 0.13323891 -0.002138811
000230 ff 7d 15 bd 5b d2 4d 3c 69 06 9a bc a0 5a ce 3d
       -0.036497112 0.01256236 -0.018801885 0.10075879
000240 00 d1 04 3e bf 21 26 bd 81 24 b8 3d a7 d5 a2 bd
       0.12970352 -0.040559527 0.089913376 -0.07950907
000250 35 e7 4f 3e 4d ee 01 be 99 55 31 bd 25 30 4c 3e
       0.20303042 -0.12688561 -0.043294523 0.1994024
000260 97 dd c3 3d 8d a0 8f bc fa cb 68 bd 8b c4 df bd
       0.09563749 -0.017532611 -0.056835152 -0.109261595
000270 6d 2c 34 be 94 fa 03 be bf e1 4c be 96 5b b6 3d
       -0.17595072 -0.12888557 -0.2000799 0.089041874
000280 3c 03 81 be b1 b5 ac 3d c7 0a b0 bd 31 62 39 3e
       -0.2519778 0.084330924 -0.085958056 0.18103863
000290 0f 55 74 bd 82 6e 89 bd a6 49 7b 3d 7c 67 23 3e
       -0.05965143 -0.06710531 0.061349533 0.15957445
0002a0 b7 cb a2 bd c0 84 9a bd df d4 03 3d e7 36 3d bb
       -0.07949012 -0.07544851 0.03218543 -0.0028871836
0002b0 7c 10 af bd 5a e6 98 bc 3d 9f 63 bb 84 cf 79 be
       -0.08548066 -0.018664528 -0.0034732365 -0.24395567
0002c0 b4 a8 6d 3d 8c 1f d5 bc 82 34 60 3d c0 34 69 3d
       0.058022216 -0.02601602 0.054737575 0.056935072
0002d0 7c 33 01 3e 6a 92 2a 3e 0d e0 35 3e 6e 98 92 3d
       0.12617296 0.16657415 0.1776125 0.0715798
0002e0 68 79 de bd 92 7b 21 be 96 38 86 3d e9 fb 9d bd
       -0.10863 -0.15769795 0.06553762 -0.07714064
0002f0 8a 02 14 bd a1 c2 35 bc 35 9c 10 3d c5 83 97 bc
       -0.036135234 -0.011093766 0.03530522 -0.01849545
000300 23 67 af bd 47 a7 50 3c 5f 6a 18 3d 39 7e b3 bd
       -0.08564594 0.0127351945 0.03721082 -0.087643094
000310 46 81 7d 3d 4f 5f 93 bd dc fc 39 bd 58 95 df bd
       0.061890863 -0.07195913 -0.04540716 -0.10917157
000320 a2 e8 90 be df 2a 26 3d ea 25 f6 3c 9a 0e 2d 3c
       -0.28302485 0.04056823 0.030047376 0.010562563
000330 10 23 93 bc 48 be 06 39 70 73 d3 bd 48 35 b8 3d
       -0.017961055 0.00012850121 -0.10324752 0.089945376
000340 18 ca 8a 3d 18 c6 05 3e 3e 21 6a 3e 2d e5 31 3e
       0.067768276 0.13063848 0.22864243 0.1737258
000350 68 ce ec 3d 99 fc 04 3e 48 dd 14 be 79 fc 8a 3d
       0.11562806 0.12986983 -0.14537537 0.067864366
000360 f0 bc 61 3d 59 28 02 be 7a b8 53 bc a0 0a 91 bc
       0.055111825 -0.12710704 -0.012922401 -0.017705262
000370 d7 2e 32 3d b3 44 1a be 63 ce e4 bd 95 0d 25 bd
       0.0435017 -0.15065269 -0.11172178 -0.040296156
000380 37 70 95 3d 31 aa b0 3d 02 07 d6 bd f6 37 0a 3c
       0.07296794 0.086262114 -0.104505554 0.008436194
000390 cb a1 60 3c 76 2f 6a 3d 50 d9 58 be 89 5c 84 bd
       0.013710449 0.05717417 -0.21176648 -0.06462962
0003a0 7b b7 c1 be 15 17 55 bd d4 96 61 bc d9 d2 1d bd
       -0.37835297 -0.052023966 -0.01376887 -0.038531158
0003b0 8d 44 e4 3c b5 5a e5 bd d2 28 7a bc 64 88 83 3c
       0.027864719 -0.111989416 -0.015268521 0.016056247
0003c0 f8 e6 f7 bd 60 03 df 3c 88 67 0d 3e 1f 24 49 bd
       -0.12104601 0.027223289 0.13809025 -0.049106713
0003d0 7f 84 d4 3d 5d 8e 75 bd fd 7f 27 3e 91 55 4e 3e
       0.10376834 -0.05995022 0.16357417 0.20149828
0003e0 a7 29 b7 3d ed 53 13 3e 2a 13 8b bc 08 0c ca bd
       0.089434914 0.14387484 -0.016976912 -0.09865576
0003f0 8a fb 96 bd 1e 3d ea 3d 2d 08 10 be 88 f8 23 3e
       -0.07372196 0.114374384 -0.14065619 0.16012776
