pretrained/semantic_weights.pth (torch, 6064 bytes, 1 tensors)

fc.weight f4 [1, 1152]
00000000: 334c 463e 1780 053e 0f56 b53c 4fb6 f53d
00000010: 2db8 153e 1cf8 5bbe 596b 78be afc8 32bc
00000020: 77fa 1bbe 3438 10be 51f2 72be ed48 f83d
00000030: aecd 823d 513f 84bd 3084 563d eee6 49bd
00000040: d8ab b83d 63d7 0fbd 523c 893d 83d6 80bd
00000050: 50ea 213e 8813 3cbe 85a8 373b f6e8 203e
00000060: 24c6 223e 6308 8ebc 146c c2bc 8785 193e
00000070: b64a f4bc bea5 043e 7651 70be 98a3 d93c
00000080: 80ca 6f3c 890b 2ebe 9144 cc3c 9585 9bbe
00000090: 8548 0b3e b935 073e 314a 863e a12c 77be
000000a0: 41da 8a3d 31e8 4e3c 55bd 8e3e f8b0 863d
000000b0: 4114 9fbc ff07 5fbe 3f02 603d 1c4e bb3d
000000c0: a8d9 093e 026c 6e3e 5074 433e 3ee2 513d
000000d0: 10ca 803d ff84 df3c b1cd 653e b9a9 ee3d
000000e0: 81fd 92be 16bd 40be c428 b1bd 6b4e 81be
000000f0: fd21 fb3c 626a b7bc 1f65 45be f0a9 c2bd
00000100: 3cfc 7e3d 3128 803d afcc a83d 3bee 1ebd
00000110: 6c7b 543d 935e 983d db16 1abe a202 de3d
00000120: 48d5 bbbe 3589 70bd c109 0e3c db6c 3d3e
00000130: 3360 8dbc 651d cf3c 5306 2e3e 7144 633d
00000140: 65e9 473e 913f 8e3e 4782 e8bd 23e1 cabd
00000150: 382e 26be f297 5e3e 0223 733d c51a b0bc
00000160: eb76 33be 7af8 92be 15e3 123d 1d55 10be
00000170: 6b4e 86bd 7d1c 983b 3e49 26bd 7df3 773d
00000180: 9573 33be e802 ba3c 95d7 133d 2962 253e
00000190: 5a9e 99be 7979 a7bd d2ba 9d3d 8123 d43e
000001a0: 2034 2fbc eaf0 7a3d f3bd b93d b51e 843e
000001b0: 8b5f dc3c d705 43be afab 533e dbbe 0c3d
000001c0: d94f 4cbe ece8 733d 63fc 37be c107 bebd
000001d0: 45c6 3cbd b95a e1bd 0b1c 0cbe 8c8f 2b3e
000001e0: df92 aa3c 4385 e7bd 39c8 903c f219 5cbd
000001f0: dd27 06bb 799c f03e b0b5 52bb 69c4 c63d
00000200: fee0 643c 5dfe 57be 1310 b03e decb 053e
00000210: 66ee 423c b6c0 043e b72a de3d 1bcf 4abc
00000220: 7f01 aebe 5e98 183d 96c6 7d3e 25f0 1a3b
00000230: 8b20 0dbd 055d 86bc 6e02 633d 83ef 4a3e
00000240: 86d5 4e3e 7b72 8abd 968b 363e dd1f b3bd
00000250: cd0b 873e c6de f4bd 402b 87bd 3eb4 773e
00000260: ad71 d63d af9b 383a 3ced cdbd efb1 92bd
00000270: 0d1d 63be 2d54 0bbe 0fe8 a1be 3154 bf3d
00000280: 7789 b5be d0c4 e43d 5f64 f4bd e2f2 543e
00000290: e138 aebd ef6e 37bd f7af 833d 1dc1 2d3e
000002a0: d6f8 a1bd 25a4 b4bd 38cf 5e3c d5c4 f639
000002b0: 0c2a 24be 7fef d4bc 4e21 9c3c 687b bdbe
000002c0: c4d3 9a3d 6f5f f23b 56f3 2a3e 985f 4c3d
000002d0: 4fd0 233e aed9 7d3e a7a5 713e 43eb cc3d
000002e0: 53da edbd 3f56 62be 3368 a83d d4f4 19be
000002f0: 1166 21bd dcdc 523c 9cf5 0f3d 3343 43bd
00000300: cb26 8fbd 0f90 49bb bed0 ad3d 2142 32be
00000310: 8533 213d e786 03be 78ce c8bc 553d fcbd
00000320: 520f c0be f098 0c3d 4943 ff3c 8429 533c
00000330: cdf7 d8b9 a582 a73c 452e 01be 7731 b43d
00000340: 1d77 bc3d 406c 143e 4579 973e c5de 8a3e
00000350: 409f 0e3e 0404 253e f003 45be 0471 a73d
00000360: e4a6 223e 9bf5 1cbe cafb edbb ffe7 12bd
00000370: c38a 89bc aa8f 59be e658 2ebe aa45 93bd
00000380: 0523 ae3d 7400 c13c 6592 12be 4723 213d
00000390: 027b cdb9 7d5b 0e3d f7c5 91be d936 dabd
000003a0: 0d8e 15bf fa15 2bbd e45a 7a3c 0d00 4cbd
000003b0: 5bb6 b23d ee81 05be 6c08 6e3b 37fc 203d
000003c0: 91e9 3ebe d895 c03d 5a52 273e 143c dbbc
000003d0: 9c06 223e 7edb a3bd b4c8 773e 783b 993e
000003e0: b913 2d3e 9aac 523e 1f5e 473d 3a5d 12be
000003f0: 9451 a3bd df2d 383e 04a5 65be 9cea 7a3e
0.19365005 0.13037144 0.022135762 0.11997663 0.14621039 -0.21481365 -0.242597 -0.0109121045
-0.15232264 -0.1408394 -0.23725249 0.121232845 0.063868865 -0.06457389 0.052372158 -0.049292497
0.090171516 -0.03511752 0.06700958 -0.06290915 0.1581204 -0.18366826 0.002802403 0.15713868
0.15895897 -0.017337983 -0.023733176 0.14992343 -0.029820781 0.1295385 -0.23468575 0.026567265
0.014635682 -0.16996588 0.024935039 -0.30375353 0.13601883 0.13204087 0.2622848 -0.24138118
0.0677991 0.012628601 0.27878824 0.06576723 -0.019418838 -0.21780394 0.054689642 0.091457576
0.13461936 0.23283389 0.19087338 0.051241152 0.0628854 0.027285097 0.22441746 0.11653466
-0.28709033 -0.1882213 -0.086503536 -0.2525514 0.030655855 -0.022389594 -0.19276856 -0.09505069
0.06225227 0.06257666 0.08242165 -0.038801413 0.051875517 0.074399136 -0.15047781 0.10840346
-0.36686158 -0.0587246 0.008669318 0.18498556 -0.017257785 0.025282571 0.169946 0.055485193
0.19522627 0.27782872 -0.113529734 -0.09906223 -0.16228569 0.2173765 0.059359558 -0.02149714
-0.17525832 -0.28705198 0.035861094 -0.14094968 -0.06557926 0.004642068 -0.040597193 0.060534943
-0.1752456 0.022706464 0.036094267 0.16150726 -0.30003625 -0.08177466 0.07701649 0.41433337
-0.01069358 0.06126491 0.09069433 0.25804678 0.026901027 -0.19045196 0.20670961 0.0343617
-0.19952334 0.059548303 -0.17967372 -0.09278823 -0.046087522 -0.11003632 -0.13682573 0.16753978
0.020821987 -0.113047145 0.017673599 -0.05373568 -0.0020470538 0.4699438 -0.0032151751 0.09705431
0.013969658 -0.21093126 0.34387264 0.1306605 0.011897659 0.12964138 0.10847991 -0.012378479
-0.33985516 0.037254684 0.24782786 0.0023641672 -0.034454864 -0.016401777 0.05542224 0.19817929
0.2019864 -0.06760117 0.17826685 -0.08746312 0.2637619 -0.11956553 -0.06600046 0.2418985
0.10470901 0.00070422416 -0.100550145 -0.071628444 -0.2217905 -0.1360633 -0.3162236 0.0934223
-0.3545644 0.111703515 -0.11933207 0.20795777 -0.085069425 -0.04478353 0.06430047 0.16968198
-0.0790879 -0.088203706 0.0135992095 0.00047067428 -0.16031665 -0.025993107 0.01905885 -0.37008214
0.07559922 0.0073966305 0.16694388 0.049895853 0.15997432 0.2479007 0.23598348 0.1000581
-0.11613908 -0.22103213 0.082229994 -0.15034801 -0.03940398 0.01287004 0.03514634 -0.047671508
-0.06989821 -0.0030756032 0.0848708 -0.17408039 0.039355773 -0.1284443 -0.024512514 -0.12316386
-0.37511688 0.03432554 0.031160014 0.012888316 -0.00041383356 0.020448038 -0.12615307 0.08798497
0.092024066 0.14494419 0.2958471 0.27123085 0.13927937 0.16114813 -0.19239783 0.08175853
0.15883976 -0.15328066 -0.0072626816 -0.03586578 -0.0167898 -0.2124621 -0.170261 -0.07191022
0.08502773 0.023559786 -0.14313658 0.039340284 -0.00039192295 0.03475522 -0.28471348 -0.106549926
-0.5841988 -0.041769005 0.015280459 -0.049804736 0.08726188 -0.13037845 0.0036320938 0.03930303
-0.18643786 0.094035804 0.16340008 -0.026762046 0.15822834 -0.08000849 0.24197656 0.29928184
0.16902055 0.20573655 0.048673745 -0.14293376 -0.07974544 0.17986248 -0.2242623 0.24503559
